…
5396884205789"}},"outputId":"dcd30075-70de-46f4-885a-5fb0b7b5b6b8","colab":{"base_uri":"https://localhost:8080/"}},"execution_count":17,"outputs":[{"output_type":"stream","name":"stdout","text":["Model: \"Basic_CNN\"\n","_________________________________________________________________\n"," Layer (type)                Output Shape              Param #   \n","=================================================================\n"," input_1 (InputLayer)        [(None, 28, 28, 1)]       0         \n","                                                                 \n"," conv2d (Conv2D)             (None, 28, 28, 32)        320       \n","                                                                 \n"," activation (Activation)     (None, 28, 28, 32)        0         \n","                                                                 \n"," conv2d_1 (Conv2D)           (None, 28, 28, 32)        9248      \n","                                                                 \n"," activation_1 (Activation)   (None, 28, 28, 32)        0         \n","                                                                 \n"," max_pooling2d (MaxPooling2D  (None, 14, 14, 32)       0         \n"," )                                                               \n","                                                                 \n"," dropout (Dropout)           (None, 14, 14, 32)        0         \n","                                                                 \n"," conv2d_2 (Conv2D)           (None, 14, 14, 64)        18496     \n","                                                                 \n"," activation_2 (Activation)   (None, 14, 14, 64)        0         \n","                                                                 \n"," conv2d_3 (Conv2D)           (None, 14, 14, 64)        36928     \n","                                                                 \n"," activation_3 (Activation)   (None, 14, 14, 64)        0         \n","                                                                 \n"," max_pooling2d_1 (MaxPooling  (None, 7, 7, 64)         0         \n"," 2D)                                                             \n","                                                                 \n"," dropout_1 (Dropout)         (None, 7, 7, 64)          0         \n","                                                                 \n"," flatten (Flatten)           (None, 3136)              0         \n","                                                                 \n"," dense (Dense)               (None, 512)               1606144   \n","                                                                 \n"," activation_4 (Activation)   (None, 512)               0         \n","                                                                 \n"," dropout_2 (Dropout)         (None, 512)               0         \n","                                                                 \n"," dense_1 (Dense)             (None, 10)                5130      \n","                                                                 \n"," activation_5 (Activation)   (None, 10)                0         \n","                                                                 \n","=================================================================\n","Total params: 1,676,266\n","Trainable params: 1,676,266\n","Non-trainable params: 0\n","_________________________________________________________________\n"]}]},{"cell_type":"code","source":["model.compile(optimizer=tf.keras.optimizers.Adam(learn
…
